Applications/uKOS_Appls_Downloadable/l_MLPs/cluster_TFL/_Training/mlp_model.tflite (tflite, 4124 bytes, 6 tensors)

arith.constant f4 [5]
0	0xbe7e21ee	-0.2481763
1	0xbec4fca2	-0.38473994
2	0xbec4d3dc	-0.38442886
3	0xbe975f2e	-0.29564804
4	0xbe8634e4	-0.26212227

arith.constant1 f4 [24]
0	0xbe878b04	-0.26473248
1	0x3ea21a0e	0.31660503
2	0x3f314d06	0.69258153
3	0xbd81be1e	-0.0633509
4	0xbef2fa0a	-0.4745639
5	0xbee945d8	-0.455611
6	0x3e33617a	0.17517653
7	0x3f0c93d4	0.5491307
8	0x3e9ae318	0.30251384
9	0x3eea9c0d	0.45822182
10	0x3ed5e1b0	0.41773748
11	0xbef8bc2e	-0.4858107
12	0xbdab5145	-0.0836511
13	0xbf17213e	-0.590351
14	0x3ef25433	0.47329864
15	0xbee3cecc	-0.4449371
16	0x3eda0f42	0.42589766
17	0x3e5eb607	0.21749125
18	0xbeed2280	-0.46315384
19	0x3f1c6e56	0.6110586
20	0xbec6fab7	-0.38863155
21	0x3ec82366	0.39089507
22	0xbf34291d	-0.70375234
23	0xbe558bd1	-0.20854117

arith.constant2 f4 [5, 24]
0	0xbebe0dc8	-0.3711989
1	0x3e34c745	0.1765414
2	0xbf2e390f	-0.68055815
3	0x3e707b70	0.23484588
4	0x3ebd13df	0.36929223
5	0x3f1fe633	0.6246063
6	0xbf9a994c	-1.2078032
7	0x3c023b32	0.007948684
8	0x3f25bb17	0.647386
9	0xbed5179e	-0.4161958
10	0xbfddec0c	-1.7337661
11	0x3f400d5d	0.7502039
12	0x3da980a4	0.082764894
13	0x3e7bdf91	0.24597003
14	0xbf42ca0d	-0.76089555
15	0x3db7dcda	0.08977671
16	0xbf5e442f	-0.8682279
17	0xbf661e6e	-0.8989018
18	0x3f73edbd	0.95284635
19	0xbd3bd48d	-0.045857
20	0xbe8356ef	-0.25652263
21	0x3f32ab98	0.6979308
22	0x3eee8689	0.46587017
23	0x3fcf936c	1.6216865
24	0x3e54cdab	0.20781581
25	0xbfaaa6d1	-1.3332158
26	0xbf594114	-0.84864926
27	0x3f8e045b	1.1095079
28	0x3e0c3193	0.13690786
29	0x3eb31e93	0.34984264
30	0xbfaf849a	-1.3712342
31	0xbe3c21db	-0.1837229
32	0xbf2203ba	-0.63286936
33	0xbf1b39bb	-0.60634965
34	0x3f0a86dc	0.5411203
35	0x3e5f1c4c	0.21788138
36	0xbecd7b51	-0.40133145
37	0x3f515cdd	0.81782323
38	0xbf2ef26e	-0.6833867
39	0x3f298312	0.6621562
40	0xbf616274	-0.8804085
41	0xbf00cbac	-0.5031078
42	0xbebad3d2	-0.3648973
43	0x3e884e87	0.26622412
44	0xbeaafe49	-0.3339713
45	0xbf99787e	-1.1989896
46	0x3f20ccc0	0.62812424
47	0x3fa0c6af	1.2560633
48	0x3e44d5b9	0.19222154
49	0x3f1e5178	0.6184306
50	0xbf3502b5	-0.70707256
51	0xbf7ecc54	-0.9953053
52	0x3f8366bd	1.0265728
53	0x3d99b63c	0.075054616
54	0x3f1da01b	0.61572427
55	0xbf24bd65	-0.64351493
56	0xbec758b0	-0.3893485
57	0xbf459d14	-0.7719281
58	0xbfb148a8	-1.3850298
59	0x3e1e7802	0.15475467
60	0x3f65e9b6	0.8980974
61	0x3e2efef0	0.17089438
62	0xbf3fddc1	-0.74947745
63	0x3d8aeddb	0.067836486
64	0xbf063c00	-0.524353
65	0xbe94a54b	-0.2903236
66	0x3f9ab30c	1.2085891
67	0xbfba108a	-1.4536297
68	0x3f716c03	0.9430544
69	0x3e1086e2	0.14113954
70	0x3f2e3145	0.6804393
71	0xbd353eee	-0.044249468
72	0x3ec85853	0.39129886
73	0xbebe4f9d	-0.37170115
74	0xbe57e49c	-0.21083301
75	0x3e783d85	0.24242218
76	0x3edf68d9	0.4363468
77	0x3ef22560	0.4729414
78	0x3f249018	0.6428237
79	0xbf1aadb9	-0.6042133
80	0xbf8684d7	-1.050929
81	0xbf3a9d87	-0.7289662
82	0x3f5b01cb	0.8554961
83	0x3e519280	0.20466042
84	0xbebd1cd8	-0.3693607
85	0x3f241e12	0.64108384
86	0xbf1d17a2	-0.61364186
87	0x3f33f96e	0.70302474
88	0xbdc5841d	-0.09644339
89	0x3f410c85	0.7540973
90	0xbe4b28aa	-0.19839731
91	0xbfa1c2e4	-1.2637601
92	0x3fd5b062	1.6694453
93	0xbfd5f7c5	-1.6716238
94	0x3edb3ed8	0.42821383
95	0xbe4ecd71	-0.20195557
96	0x3ebd3688	0.36955667
97	0x3f19aebe	0.6003226
98	0xbec25ccf	-0.37961432
99	0x3d99e626	0.075146005
100	0xbc04e245	-0.0081105875
101	0x3ec87061	0.39148238
102	0x3f68a895	0.90882236
103	0xbec31a7b	-0.3810614
104	0x3f1dfd77	0.6171488
105	0xbe6158a4	-0.2200647
106	0x3fbf82a9	1.4961749
107	0x3ebc8c67	0.36825868
108	0x3e112b2f	0.1417663
109	0x3f063c77	0.5243601
110	0xbdb0f14d	-0.086397745
111	0x3e116e73	0.1420229
112	0xbbc45524	-0.005991595
113	0xbeb99166	-0.36243743
114	0xbfc16c5d	-1.5111195
115	0x3fe3906d	1.777845
116	0xbf89cc36	-1.0765445
117	0x3fee3348	1.86094
118	0x3e02367f	0.12716101
119	0xbffece59	-1.9906722

arith.constant3 f4 [24, 12]
0	0xbf0d0072	-0.55078804
1	0xbe83da89	-0.25752667
2	0x3d7a3d55	0.061093647
3	0x3dab1f08	0.08355528
4	0x3cc84464	0.024446674
5	0xbe12380e	-0.14279196
6	0xbba8abef	-0.005147449
7	0xbe2dbc35	-0.16966327
8	0xbe3b6164	-0.1829887
9	0xbead0243	-0.33790788
10	0x3d96eb72	0.073691264
11	0xbe87d75e	-0.265315
12	0x3dfa3d5c	0.122187346
13	0x3f011259	0.5041862
14	0xbf34b5f2	-0.70590127
15	0x3ebb5d6f	0.36594722
16	0x3f4a6dc0	0.79073715
17	0x4007a157	2.1192224
18	0x3fc0026a	1.5000737
19	0xbebab37c	-0.3646506
20	0xbf815ff7	-1.0107411
21	0x3f9ab9bd	1.2087933
22	0x3ec269b4	0.3797127
23	0x3e8262b0	0.25465918
24	0x3f326f57	0.6970114
25	0xbe259271	-0.16169144
26	0xbf263254	-0.64920545
27	0x3d77bca5	0.06048264
28	0x3c9cadb4	0.019125797
29	0xbca608d6	-0.020267885
30	0x3f3e198b	0.74257725
31	0x3bad155c	0.0052820873
32	0xbf3e8a53	-0.74429816
33	0xbe4177f1	-0.1889341
34	0xbf440f0e	-0.7658547
35	0x3ea9492a	0.33063632
36	0xbf871b43	-1.0555195
37	0xbf945a20	-1.1590004
38	0x3ec36487	0.38162634
39	0x3fc36f40	1.5268326
40	0x3fba0e18	1.4535551
41	0x3ee89aae	0.4543051
42	0x3e7da6ae	0.24770615
43	0xbf2ded77	-0.6794047
44	0xbf130c74	-0.57440877
45	0x3e558ea2	0.20855191
46	0xbf0db7e2	-0.5535871
47	0xbfa8d4bc	-1.3189921
48	0xbe55abbc	-0.20866293
49	0xbd2963e2	-0.04135502
50	0x3e086c3b	0.13322537
51	0xbeef5a5d	-0.4674863
52	0xbe875ca1	-0.26437858
53	0x3f15d9a3	0.5853521
54	0x3e3a69ca	0.18204418
55	0xbe338ef4	-0.17535001
56	0xbc9c795b	-0.019100836
57	0xbe4c005a	-0.19922009
58	0x3d4507ac	0.04810302
59	0xbebb934f	-0.36635825
60	0xbbd0020f	-0.0063479017
61	0xbdfb3b4e	-0.12267171
62	0xbd9d5991	-0.07683099
63	0xbdce5650	-0.100750566
64	0x3dd44458	0.10364598
65	0xbd672602	-0.05643273
66	0x3e165743	0.14681725
67	0xbd0321a7	-0.032014515
68	0x3e684dae	0.22685882
69	0xbe056cc7	-0.13029777
70	0x3e972ed7	0.29527923
71	0x3de32b6f	0.11092269
72	0x3fa85652	1.3151343
73	0x3f8a409f	1.0800971
74	0xbfc83931	-1.5642453
75	0xbf880057	-1.0625104
76	0xbfadc0f1	-1.3574506
77	0xbe6eaa65	-0.23307188
78	0x3d4ebecd	0.05047493
79	0x3fb6dc56	1.4285991
80	0xbdbdb327	-0.09262686
81	0x3e6538ef	0.22385
82	0x3f49456c	0.78621554
83	0x4033321f	2.7999341
84	0x3dcd2f3f	0.10018777
85	0xbe64c7e3	-0.22341876
86	0x3e6ae4a2	0.22938779
87	0xbe83e47c	-0.25760257
88	0xbea373a2	-0.31924158
89	0xbefde41f	-0.49588105
90	0x3e2f1c2c	0.1710059
91	0xbcb335fe	-0.021876331
92	0x3d326506	0.043553375
93	0x3ea0c279	0.3139837
94	0xbf200429	-0.6250635
95	0x3e00c54f	0.12575267
96	0x3e792872	0.24331835
97	0x3e89249e	0.2678575
98	0xbd91e117	-0.071230106
99	0xbe1892e4	-0.14899784
100	0x3f37d7eb	0.7181384
101	0x3fc1b26c	1.5132575
102	0x3fc8e043	1.5693439
103	0xbc4a63f9	-0.012352937
104	0xbee7d483	-0.4527932
105	0x3fe452ca	1.7837765
106	0xbd2a24a0	-0.041538835
107	0x3e72ab17	0.23698078
108	0x3f57d74a	0.8431288
109	0xbe953c63	-0.29147634
110	0xbf3b1084	-0.73072076
111	0x3ed5f9ec	0.41792238
112	0xbe8156e4	-0.25261605
113	0xbee05ff4	-0.43823206
114	0x3f3ad1ad	0.7297619
115	0x3e966d09	0.29380062
116	0xbf8e85c1	-1.1134568
117	0xbb909817	-0.004412662
118	0xbf5a718e	-0.8532952
119	0x3e88e88c	0.2673992
120	0x3f79a5a4	0.9751837
121	0xbf267cb3	-0.65034026
122	0x3ec1c7d7	0.37847778
123	0xbec09fe6	-0.37621993
124	0xbf26b8e0	-0.65125847
125	0xc05b64ea	-3.4280343
126	0xbeb0de17	-0.3454444
127	0x3f162813	0.586549
128	0x3eaf57f1	0.3424678
129	0xc009ddfa	-2.1541734
130	0xbfb0c4e3	-1.3810085
131	0xbd34ca04	-0.04413797
132	0xbd3604a8	-0.044438034
133	0xbe8d221c	-0.27565086
134	0x3d56d264	0.052446738
135	0xbe2ed989	-0.1707517
136	0xbdad3f3b	-0.08459326
137	0xbdd5e577	-0.104441576
138	0x3eb3bde7	0.35105821
139	0xbe1c7c60	-0.1528182
140	0x3f0e1f6c	0.55516696
141	0xbdb1cf8e	-0.08682166
142	0x3e66290e	0.22476599
143	0x3e7c5758	0.24642694
144	0xbe8d2348	-0.2756598
145	0x3e76123a	0.2403039
146	0xbdc05e51	-0.093929894
147	0x3e7d56cb	0.2474014
148	0x3ec88517	0.3916404
149	0x3fa0b899	1.2556335
150	0x3f9e31c7	1.2358941
151	0xbed1bf41	-0.40966228
152	0xbecbc6cb	-0.39800104
153	0x3f0b10a2	0.54322255
154	0x3eabadce	0.3353104
155	0xbd6f1200	-0.058366776
156	0xbf6cbfc0	-0.9248009
157	0x3efd2eaa	0.49449664
158	0x3e18689b	0.14883654
159	0x3d481350	0.048846543
160	0x3e84b1f9	0.25917032
161	0xbe99be75	-0.3002812
162	0xbec1baab	-0.3783773
163	0xbe7f0576	-0.24904427
164	0x3f2f66a3	0.68515986
165	0x3e93e2ba	0.28883916
166	0x3f529c80	0.8227005
167	0xbdded08c	-0.10879621
168	0x3f4424ce	0.7661866
169	0x3dbdf7fc	0.09275815
170	0xbe8bfb47	-0.27340147
171	0x3ee1bd1a	0.44089586
172	0x3e5ecda3	0.21758132
173	0xbdee2810	-0.11628735
174	0x3ea151c2	0.3150769
175	0x3ec83091	0.39099553
176	0xbf6a1f43	-0.9145395
177	0xbe426baa	-0.18986383
178	0xbf124cee	-0.57148635
179	0x3f04ed52	0.5192462
180	0xbecfc254	-0.40577948
181	0x3e477e38	0.19481742
182	0x3ee5deed	0.4489664
183	0xbddbec1a	-0.10738392
184	0x3e893918	0.26801372
185	0x3e91cf61	0.2847853
186	0xbec3c8c3	-0.38239107
187	0xbd999ee8	-0.07501012
188	0x3e76c4d0	0.24098516
189	0x3c9c4365	0.019075105
190	0x3eda13ac	0.42593133
191	0x3b9583db	0.0045628375
192	0x3ecabf49	0.39599064
193	0x3e0d9c71	0.13829209
194	0xbecc47ca	-0.3989852
195	0x3eb922bf	0.36159322
196	0xbdc17a8e	-0.094472036
197	0x3ec37b86	0.38180178
198	0x3f19925d	0.5998896
199	0x3e1238f9	0.14279546
200	0xbf0bdd01	-0.546341
201	0xbf03f316	-0.51542795
202	0x3d537e2d	0.051634002
203	0xbd82a57e	-0.063792214
204	0xbebd99f1	-0.3703151
205	0x3e955714	0.29167998
206	0xbe557676	-0.2084597
207	0x3f0eedfe	0.558319
208	0x3e6dc2d1	0.23218848
209	0x3e64964c	0.22322959
210	0x3e66fb5d	0.22556825
211	0xbe7f0472	-0.2490404
212	0xbf042186	-0.5161365
213	0xbe6a59ae	-0.22885773
214	0x3e7d9eb3	0.2476757
215	0xbe026f4f	-0.12737773
216	0xbf5d92ca	-0.8655211
217	0x3ea0c2bb	0.31398568
218	0xbe3420cc	-0.17590636
219	0x3e532de4	0.20622975
220	0x3f1b301c	0.60620284
221	0x40631ccd	3.5486329
222	0x3eb7df56	0.3591258
223	0xbf18dea3	-0.59714717
224	0xbdd1b320	-0.102392435
225	0x40128376	2.2892737
226	0x3f804f70	1.0024242
227	0x3eb45468	0.35220647
228	0x3e2c741e	0.1684117
229	0xbfff0b4e	-1.9925325
230	0x3f935b80	1.1512299
231	0x404f4236	3.2384162
232	0x3fbad9f3	1.4597763
233	0x3e81fe63	0.25389394
234	0x3ee8c3f8	0.45462012
235	0xbf2702e7	-0.65238804
236	0xbf1bf312	-0.6091777
237	0xbf2f7ce9	-0.6854997
238	0xbf8b8e15	-1.0902735
239	0xbf469566	-0.77571714
240	0xbdcb8fd6	-0.09939544
241	0x3fe186a7	1.7619218
242	0xbf995d7d	-1.1981655
243	0xc0445059	-3.067404
244	0xbfaabd23	-1.333897
245	0xbe9e0a49	-0.30867222
246	0x3c16e7dd	0.009210554
247	0x3e84049d	0.2578477
248	0x3f254976	0.6456522
249	0x3ec9143a	0.39273244
250	0x3f865239	1.0493842
251	0x3ef4cc94	0.4781233
252	0x3ef6386e	0.48089927
253	0x3f191eb8	0.598125
254	0xbf4a7e38	-0.79098845
255	0x3e728f8f	0.23687576

sequential_1/dense_1/MatMul f4 [12, 2]
0	0x3eaa242e	0.33230728
1	0xbf13e0bd	-0.577648
2	0xbee4d513	-0.44693813
3	0xc0300831	-2.7505
4	0x3eea798c	0.45795858
5	0x3fc76a58	1.5579329
6	0xbe325405	-0.17414863
7	0x402a8243	2.6642005
8	0xbf387910	-0.72059727
9	0x40144859	2.3169158
10	0xc050480b	-3.2543972
11	0x3e0133bb	0.1261739
12	0xbfe6b512	-1.8024008
13	0x3dcc834b	0.0998598
14	0x3ef35beb	0.47531065
15	0xbfb64b18	-1.4241667
16	0x3f65623c	0.8960302
17	0xbf00b7eb	-0.50280637
18	0xc03b6aa9	-2.928385
19	0xbed2f9bf	-0.41206166
20	0xbf44bc0d	-0.7684944
21	0xbf280660	-0.6563473
22	0xbdc85583	-0.09781935
23	0xc014830c	-2.3204985

sequential_1/dense_1/BiasAdd f4 [12]
0	0x3f3302d7	0.6992621
1	0xbce784b2	-0.028261516
2	0xbe6ce969	-0.23135914
3	0x3ea50d3f	0.32236668
4	0x3ce8c721	0.028415265
5	0xbe0d4f09	-0.13799681
6	0x3eca138b	0.39468035
7	0x3e5841bb	0.21118824
8	0xbf11b6ff	-0.56919855
9	0xbd84fcf6	-0.06493561
10	0xbeb67d44	-0.35642445
11	0x3e93d7aa	0.28875476
