Applications/uKOS_Appls_Downloadable/l_MLPs/class_TFL/_Training/mlp_model.tflite (tflite, 18924 bytes, 6 tensors)

arith.constant f4 [2]
00000000: df0d 64be 1f35 493e
-0.22270916 0.1964917

arith.constant1 f4 [73]
00000000: e559 873e b767 613e d63e 0abe 73b4 78be
00000010: 2f03 3c3d 72ed 053e f8bb 00be 3d2c 9f3e
00000020: e075 58be a87c 3c3e 2eef 1b3e 7f6d 4e3d
00000030: 0a76 65be f5af 6cbe 523c 5d3e 5741 463e
00000040: 5026 7d3e ba2a 55be 2a9e 403e 0a23 78be
00000050: f772 803e 3918 15be a59e 573e a8c4 713e
00000060: 547d 693e b69d 01bd b14f 763e 0ad4 bf3d
00000070: 92fe ac3e b761 3e3e 5f43 38be 65cd 5ebe
00000080: 08d6 83be 6680 95bd 4a5d 723e 8400 a2bc
00000090: b667 6abe a9dc 4ebe 6b44 633d d485 d5bd
000000a0: 2967 413d a7cb 32be 9588 4d3e 2638 91be
000000b0: 081d 5d3e 1af0 453e e5bb 7ebe 8703 593e
000000c0: d04b 853e 382c 903e 3ebc 013e d483 a33d
000000d0: e3cb 85be d05e 523e 9e67 1fbe 2f47 68be
000000e0: 38c4 3f3e 2034 7abe bce0 313e 1484 653e
000000f0: 63a8 d73d 79ab 703d e97d 4ebe 269e 813e
00000100: d34d f73d ed52 6ebe 30e6 563e fc28 753e
00000110: bd8c 0e3e 8cd9 46be 5257 88be 7f04 73be
00000120: 7dd4 95be
0.26435772 0.2201222 -0.13500533 -0.24287586 0.045901474 0.1307886 -0.12571704 0.3108844
-0.21138716 0.18406928 0.15227959 0.050397392 -0.2240831 -0.23113997 0.21605042 0.19360863
0.24721646 -0.2081708 0.18810335 -0.24232116 0.2508771 -0.14560021 0.21056612 0.23610175
0.22801715 -0.031644545 0.24053837 0.09366615 0.33787972 0.18591963 -0.1799445 -0.2175804
-0.2574923 -0.07299881 0.236684 -0.019775636 -0.22891125 -0.20201363 0.05548517 -0.10425916
0.04721752 -0.174605 0.20071633 -0.2836315 0.21593106 0.19329873 -0.24876364 0.21192752
0.26034403 0.28158736 0.12669465 0.079841286 -0.26132116 0.2054398 -0.1556687 -0.22683404
0.18727195 -0.24433947 0.17370886 0.22413665 0.10530164 0.05875728 -0.20165218 0.2531597
0.12075391 -0.23273821 0.20986247 0.23941416 0.13920875 -0.19418925 -0.2662912 -0.23732184
-0.29263678

arith.constant2 f4 [2, 73]
00000000: 810a 18be 17d5 d7be eaa6 51bf bc79 ba3e
00000010: d101 463f b5e2 db3e f0cb 353e 2fc3 50be
00000020: d71b aa3e dccb 4dbe b37d 773f 44e0 0d3f
00000030: 5d5f c43e d9d7 2f3e 15fa 3bbe ae36 193f
00000040: 62c5 9bbc bc47 d23e 70b0 a2be 1bf9 f43d
00000050: a3f8 eebd 041e fbbe 2889 8fbe a102 c5be
00000060: aedb 97be 57de 843e 98cb 9bbe 1761 303f
00000070: 3a40 29bd 5bde 0d3f 36d5 88bf 803f 783d
00000080: 3ca2 eb3c 3cc0 3abf 778f 53be e9c4 96be
00000090: 62e8 2c3e b937 00bf b794 043e ee04 36bf
000000a0: d787 323f 0f70 77bf 17f3 81be b6e4 633e
000000b0: 7b63 93be 2de3 d6be 565d c93e 9975 84be
000000c0: a28c 10be 3912 0dbc e1b7 563f 39b9 3a3f
000000d0: 81cf c43d e274 bcbe de71 7e3d 2433 b93e
000000e0: 1bdd c3be cba0 233e ef83 333f f238 b6be
000000f0: cdba 1e3f 6d59 e33e 25c7 38bf 3df0 9bbe
00000100: 12c1 4b3f d5d5 c43e 30ed 9bbe 6c0c 60bc
00000110: c39d 1f3f 0e5a a43e e072 493e e12d b73e
00000120: 2de7 183e ed9e 523e 899c 2f3e c1a4 263f
00000130: b292 143d e77a 3fbf f307 42bf 1ab3 61bd
00000140: c774 273e aee3 a5bd 9934 7b3e 41ed 66bf
00000150: 6ba2 9abe 3305 b6be 1217 cbbe 301f 863e
00000160: 965f 40bf 83d2 9a3e b115 91be 78ce 953e
00000170: 0f43 c6be 127a 833e 9127 373f 86e6 cd3e
00000180: 1676 e03b 6a9c 893e 272b 1abf 848c 2a3e
00000190: aa86 5cbf de64 c73e 517c 2dbf 8c63 733f
000001a0: f1b9 88be 601d 75be bcd5 e53e b909 853e
000001b0: 68a6 703d 541e 53be af75 323f 2a84 103e
000001c0: 2052 593f a61c d6be 1a54 453f 671b 453e
000001d0: a96d 26be 5334 e13e 1d52 d13e 0ba8 123c
000001e0: cbb7 b03e ff4a c43e 3e8d f83e 3a26 30bf
000001f0: 4b71 3cbf 9d01 b1be 5691 833e 2995 39be
00000200: b2f5 28be 1d01 873e 28e5 c1be 8550 32bf
00000210: b5d5 163e aaaf 28bf 568d 18bf e7bd 683f
00000220: bcf5 8e3d 2bad e4be deb0 8abe b0a5 9c3e
00000230: fb55 ad3e a273 69bf c840 95be 1c2e 8cbe
00000240: b449 5dbd c3ba 40be
-0.14847757 -0.42154762 -0.81895316 0.36421 0.7734652 0.429464 0.17753577 -0.20386957
0.33224365 -0.20097297 0.96676177 0.5542033 0.38354006 0.17172183 -0.18357117 0.5984906
-0.019015018 0.41070354 -0.31775236 0.119615756 -0.116685174 -0.49046338 -0.2803433 -0.38478568
-0.2965979 0.25950882 -0.30428767 0.6889815 -0.041321017 0.5541741 -1.0690067 0.060607433
0.028763883 -0.72949576 -0.20660196 -0.29447106 0.16885522 -0.50085026 0.12947355 -0.7110127
0.69738525 -0.9665536 -0.25380775 0.22255215 -0.28786835 -0.41970196 0.39329022 -0.2587097
-0.14116147 -0.008610302 0.83874327 0.7293888 0.09609891 -0.36807925 0.06212031 0.3617183
-0.38254628 0.15979306 0.7012319 -0.3559032 0.62003785 0.44404164 -0.7217887 -0.30456725
0.79591477 0.3844439 -0.30454397 -0.013674837 0.623501 0.32099956 0.19672728 0.3577719
0.14931937 0.20568438 0.17149557 0.65095145 0.036272712 -0.7479691 -0.7579338 -0.055102445
0.16353141 -0.08100067 0.24531783 -0.9020577 -0.3020204 -0.35550842 -0.3966604 0.2619567
-0.7514585 0.30238733 -0.28336862 0.29259086 -0.38723037 0.2567907 0.7154475 0.40214938
0.0068500144 0.26877147 -0.60222095 0.16655165 -0.8614298 0.38944143 -0.67767817 0.9507377
-0.26704362 -0.23936987 0.4488963 0.2598398 0.058752447 -0.20617038 0.6971082 0.14112917
0.8489094 -0.41818732 0.77081454 0.19248734 -0.1625277 0.43985233 0.4088296 0.008951197
0.34515223 0.38338467 0.4854526 -0.6880833 -0.7361037 -0.34571543 0.2569682 -0.18123306
-0.16499975 0.26368037 -0.37870145 -0.69654113 0.1472996 -0.6589304 -0.5959066 0.9091477
0.06980464 -0.44663367 -0.27088064 0.3059516 0.3385466 -0.91192067 -0.29150987 -0.2737893
-0.054025367 -0.18821244

arith.constant3 f4 [73, 52]
00000000: 7fbc ef3d 1af5 1cbe b3c5 28be 7f18 aabe
00000010: fec4 45be 28ac 37bd 3d73 da3c 608c 3ebe
00000020: afc6 e4bd de8a acbc 0781 513c 16c3 ecbd
00000030: 846c fb3e 19f0 4a3d cbe1 89be e418 aa3d
00000040: 0801 15be 57fc 5ebd 9a6f 47be 3f38 0b3e
00000050: b74e 60bd 40e9 86bd f336 0e3e 9535 b1be
00000060: 17ba 8dbe 9371 f23d c74a 713e 64e0 fa3e
00000070: fa8c 78bd 066d da3c 02a9 a53e 8ed2 a43e
00000080: 5280 5dbd 697d 99be 728c b33e 0b8f 7dbe
00000090: f5df 213e 36b9 40bd 2923 453e 455b b03c
000000a0: 6d68 48bd 8f2e a83e c704 74be 7bf4 88be
000000b0: 5f6a b33b 0112 7abd 8564 85be 5986 2b3e
000000c0: 44ae a13e 7a63 1ebd 1bb8 943e ea80 76bd
000000d0: 2696 c73e 5cca 473c 1a0c 10be 27ed 95be
000000e0: 46e0 2abe b46b 25bd df95 3fbd 942c 1dbe
000000f0: aed0 323d 406d 61be e367 ac3d 5c09 c03d
00000100: 27fc fc3e cda0 67bd aa1b 8fbe af58 8a3e
00000110: b137 acbd 1dd3 473c 1116 eebd 1bb1 253e
00000120: e41a 783c 0446 99be d1b6 013f f5ed 0bbf
00000130: 2191 48be 4013 9f3d 1f77 d2bd d1e9 743e
00000140: ac55 c9bd f21b 193d ed55 743e 7817 543e
00000150: bf77 2c3e a8eb 72be d4c2 60bd 295d 103d
00000160: 2ed3 e7bd f3f4 4cbe 9972 dc3c 40b7 b6bd
00000170: b027 13bd 5b35 2c3d 2caa ec3d 8b20 cdbe
00000180: a44e 823e 56db 88bd c9b1 6fbc cd37 1dbe
00000190: 6d36 873e 09b8 34be 52e0 a83e 5356 b33d
000001a0: fe5b e2bd badf d9be 0fbf 86be cf09 e4bd
000001b0: 6820 5e3e 6c89 3d3e 6eb8 d7be b243 cfbc
000001c0: 1f46 483d a0d3 903e 9e49 6d3e 4def 083f
000001d0: 5e39 e2be f7bf 26be dfc2 a0be 03f6 81be
000001e0: b5a2 52be 4f0c cabd cfce 593e 2532 e13e
000001f0: 23fa c93e 942c 363f b6d2 00be 8b15 7d3e
00000200: ff81 013e 4f13 3fbf c112 01bf e77d b4be
00000210: d2fb 8cbe e8d0 98be f464 f2be 12a8 41bf
00000220: d14f d6be d722 063f 96ec 29bf 7530 413e
00000230: bf2e eb3e 5ccf 183f 97c4 71bd bc50 2dbf
00000240: e5fa 65be 1bad 0bbf 1602 193f 0165 313f
00000250: 095a febe 77c9 233e 9d17 08bf bd89 2a3d
00000260: 99e6 3b3c 937f 2f3f b200 e4be 81dc cf3d
00000270: 5d4a d4bd 61d6 1dbd eac5 2fbd 505e 25bd
00000280: 7632 333e 3cf4 133d e088 573e a66d 04be
00000290: 4407 3f3e ad44 c2bd 0d1b 41bd 3264 c8bb
000002a0: 272f 66be e3bb a63e 63f3 693e 5cfd cf3d
000002b0: 71e7 513e e1c1 a53c 374f 183d 019e 343e
000002c0: e95c 2f3e be5c b93e 1bd1 24be be60 c73e
000002d0: 912f a33e 223a 95bd 628a 7bbe bcef b3be
000002e0: d873 abbc 3a34 cf3d b20e 92be b010 81be
000002f0: ddf1 163c 29a4 9b3d a9fc 76be 857c d0bd
00000300: 3a49 eabd 305c 143e af39 8dbe 6bc6 40be
00000310: b57a b53e bc92 6bbe e71c 1cbd 4d54 a93c
00000320: 291d ecbd ad20 c33d 49d4 633e 28d5 6e3d
00000330: d4b6 07be 08f4 f6bb 5733 37be fe9f 6d3e
00000340: 0c32 053f 1582 32bf e5ac dcbe c310 e83d
00000350: 9e37 64be 910c f3bd 7dc5 afbe 1538 4bbd
00000360: 86f6 08bf 6efd c6be 3c81 b13e a41c f13e
00000370: b87a 7ebd faf8 cabe 8df4 46bf 25d4 2c3d
00000380: 0745 c3be 41cf 13bd b557 40bf 7d65 543d
00000390: 9f53 433e f0a8 8abd d449 023e 756e 2dbe
000003a0: 70e3 6bbe e9a0 b6bd 0f47 f9bd 5c1d 0dbe
000003b0: c4db 69be 93eb af3e 8077 863a 4f1e 77bd
000003c0: 1d0e 22be df8b 3a3d 87d4 82be 85b2 13be
000003d0: 20de a93d fd8f a4bd ca6a ce3e 0b36 d8bd
000003e0: 12f4 91be 589a 4d3e abe9 59be fea6 9e3c
000003f0: 49e3 133e 8ee7 53be b61c ffbe 1138 3c3e
0.11705875 -0.15327874 -0.16481666 -0.33221814 -0.19313428 -0.044841915 0.026666278 -0.18608236
-0.111707084 -0.02106231 0.01278711 -0.11560647 0.49106228 0.04954538 -0.2693008 0.08305529
-0.14551175 -0.05443987 -0.19476166 0.13595675 -0.05476257 -0.06587458 0.13888149 -0.34611192
-0.27681038 0.11838069 0.23563682 0.4899932 -0.06068132 0.026663315 0.32355505 0.3219189
-0.054077454 -0.29978493 0.3506809 -0.24761598 0.15808089 -0.04705163 0.19251694 0.021527896
-0.048927713 0.3284802 -0.23829947 -0.26749024 0.005475327 -0.061052326 -0.26053253 0.16750468
0.31578267 -0.038669087 0.2904671 -0.060181536 0.38981742 0.012194242 -0.14067116 -0.29282495
-0.16687116 -0.040385917 -0.046773788 -0.15349036 0.043656044 -0.22014332 0.08418252 0.09376785
0.49411127 -0.056549836 -0.27950794 0.27020785 -0.0840906 0.012196329 -0.116253026 0.16180842
0.01514313 -0.2993623 0.5066958 -0.5465997 -0.19586612 0.077673435 -0.10276627 0.23917319
-0.09830794 0.037380166 0.23860903 0.20712078 0.16842555 -0.23722708 -0.054873303 0.035245094
-0.11319576 -0.20015316 0.026910113 -0.08921671 -0.03592652 0.04204307 0.11555895 -0.4006389
0.25450623 -0.0668246 -0.01462979 -0.15353318 0.2640871 -0.17648329 0.32983643 0.087566994
-0.11052702 -0.42553502 -0.2631764 -0.11134683 0.2169205 0.18509454 -0.42132896 -0.025300834
0.048894998 0.28286457 0.23172614 0.53490144 -0.44184393 -0.16284166 -0.31398675 -0.25383005
-0.2056988 -0.09865629 0.21270297 0.4398357 0.39448652 0.7116177 -0.1258038 0.24715249
0.12647246 -0.7463884 -0.5041924 -0.35252306 -0.27535874 -0.29846883 -0.47342646 -0.7564708
-0.4185777 0.5239691 -0.66376626 0.18866141 0.45934102 0.59691405 -0.059025373 -0.67701316
-0.2245899 -0.54561013 0.5976881 0.69294745 -0.49678066 0.15994821 -0.5316103 0.041635264
0.011468553 0.6855404 -0.4453178 0.1014948 -0.10365746 -0.038534526 -0.042913355 -0.040373147
0.17499718 0.036121592 0.21048307 -0.12932453 0.18655115 -0.09485755 -0.04714494 -0.00611546
-0.22478925 0.3256522 0.22846751 0.10155746 0.20498444 0.02023405 0.03718492 0.17638399
0.17125286 0.3620357 -0.16095392 0.38940996 0.31872228 -0.072864786 -0.24564508 -0.3514384
-0.020929262 0.10117383 -0.28526837 -0.25208044 0.009212938 0.075996704 -0.2411982 -0.1018
-0.11439748 0.14488292 -0.27583072 -0.1882569 0.3544518 -0.23005193 -0.0381135 0.02067008
-0.11528999 0.09527717 0.22248949 0.05830875 -0.13253337 -0.007536415 -0.17890678 0.23205563
0.5202949 -0.6972974 -0.43100658 0.11331322 -0.22286841 -0.11867631 -0.3433036 -0.04961403
-0.53501165 -0.38865227 0.3466891 0.47092164 -0.062128752 -0.3964308 -0.77716905 0.042194504
-0.381386 -0.036086325 -0.7513383 0.0518546 0.19074868 -0.067705035 0.12723476 -0.16936667
-0.2303598 -0.0891741 -0.121717565 -0.13780731 -0.2283774 0.34359416 0.0010259002 -0.06033164
-0.15825696 0.045543548 -0.2555277 -0.14423569 0.0829432 -0.08035276 0.4031585 -0.10557183
-0.28506523 0.20078409 -0.21280544 0.019366737 0.14442171 -0.206938 -0.49826592 0.18380763

sequential_1/dense_1/MatMul f4 [52, 2]
00000000: dd38 333f 56ec c8be 3f34 6fbf 341e ed3c
00000010: 85d2 eebe b41b a63e 14f6 28be 9d61 eb3e
00000020: a4bc 84bd aca9 9dbe 4b91 923e 0f2a fdbe
00000030: 0416 33bf 424e 72be 56b9 bebb 8cc2 1f3f
00000040: 160f 09bf e800 dbbe ddef 953c e730 39bf
00000050: 9a69 093f c20e 103e 32f5 283f 0db5 753d
00000060: f8b3 08bf e906 2c3e dca8 9fbe c56f 88be
00000070: 48a1 72bf ac92 4ebe c379 543d 693b ec3e
00000080: 8729 2dbf 0250 09be 123d 1bbe 3821 e83e
00000090: 0b46 44bf e433 09bf 4461 dc3e 940a a13e
000000a0: 598f 4a3e 7c84 1e3f 89fb 523f 839c 613e
000000b0: c774 793e 04c2 903e 7d94 0fbd f7ff ec3d
000000c0: ac19 153e c10c 12bf cacb 4dbf 89c8 09bf
000000d0: 216f 91be b56e 163f abd7 74be a024 9f3e
000000e0: 342a 0bbf a4af a73d e058 f13d 2dc0 113f
000000f0: 5ca0 82be 1d60 98bd 98f2 e3be 5d7d c1be
00000100: 5075 15bf 0791 a7be 0d9e 003f 7170 573e
00000110: a6df 1cbf bdb8 bebd 5196 8abe 3d32 273f
00000120: f191 873e 9829 13bf 9030 143f 3bf5 a4be
00000130: ea67 9b3e 2b14 69bf e110 00bf 6cc2 623e
00000140: d794 fcbe 221e 043e a97f d1be 98e2 393f
00000150: 0e23 bc3e 2f6a 13bf fe31 0a3f 4211 7f3e
00000160: e6e1 2abf 2d34 07bf 64c6 dd3c 5a99 3ebf
00000170: 6fe5 1bbf 14b4 a73d 0c75 6dbd 3046 1f3f
00000180: 6530 783e 46f5 33bf 3a14 d93e e805 81be
00000190: cf85 973b 3bdd 3e3f 02e7 0dbe 188b 503f
0.7000864 -0.3924281 -0.93439096 0.028945066 -0.4664499 0.3244301 -0.16500121 0.4597291
-0.06481293 -0.30793512 0.28626475 -0.4944615 -0.6995547 -0.23662665 -0.0058204336 0.6240623
-0.53538644 -0.4277413 0.018302852 -0.72340244 0.5367676 0.1406813 0.6599914 0.059987117
-0.5339961 0.16799511 -0.31183517 -0.26647773 -0.94777346 -0.20173138 0.051873934 0.46139076
-0.6764149 -0.13409427 -0.15160015 0.45337844 -0.7666938 -0.53594804 0.43042958 0.31453383
0.19781245 0.61920905 0.8241506 0.2203236 0.24360953 0.28273022 -0.03505372 0.11572259
0.14560574 -0.5705071 -0.8038908 -0.5382162 -0.28405097 0.58762676 -0.23910396 0.3108263
-0.5436127 0.08187798 0.1178453 0.5693386 -0.2551297 -0.07440207 -0.44521022 -0.37790957
-0.5838213 -0.32727835 0.50241166 0.21038987 -0.6127876 -0.0931258 -0.27067807 0.6531103
0.26478532 -0.5748534 0.578866 -0.32218346 0.30352718 -0.910464 -0.50025755 0.22144479
-0.49332306 0.1290212 -0.4091771 0.7261138 0.36745495 -0.575839 0.5398253 0.24908927
-0.66750944 -0.5281399 0.02707214 -0.74452746 -0.6089696 0.08188644 -0.057972953 0.6221647
0.24237211 -0.7029613 0.42398244 -0.2519982 0.0046241055 0.7455632 -0.13857654 0.8146224

sequential_1/dense_1/BiasAdd f4 [52]
00000000: c194 183f 24c2 debe 428f 6ebe 0b98 d6bd
00000010: 06b5 3ebe cc49 113e e8e2 583e aaf2 c7bd
00000020: 5fe4 bebe 3266 bdbe 6e05 1cbe 6e26 1d3e
00000030: 526d 703f 01ce 1fbe 55ed 04bf 0031 e93d
00000040: 148b 7bbe 6aae d23d e6f7 0fbf b68a 82bc
00000050: b134 b5be 6c64 48bf 4cf3 543f 0c0d 88bf
00000060: 4235 86be 3a7b 063f b7cc 3c3e edc6 de3e
00000070: 4cf3 4dbe b07f 683e 1fc1 523f 3a43 f53e
00000080: ac85 8a3e ea36 48be 0a68 8d3e 3ec2 7ebe
00000090: e87f 1bbd 9245 88be f8a1 103f 28f4 433e
000000a0: bf0b 25be 47a2 323f d2f8 a9be e132 cebe
000000b0: 078f f53e 9dd8 bbbe 85d7 c1bd 97e8 323d
000000c0: 9b47 d83e 67f2 40be 26c8 093f d5fb 91be
0.5960198 -0.43507493 -0.23296836 -0.10478219 -0.18623742 0.14188308 0.21180308 -0.09763081
-0.37283608 -0.3699203 -0.15236446 0.15346691 0.9391681 -0.15605928 -0.5192464 0.11386299
-0.24564773 0.10287173 -0.5623764 -0.015935283 -0.35391763 -0.7827823 0.8318374 -1.0628982
-0.26212507 0.5253178 0.18437468 0.43511143 -0.20112342 0.22704959 0.8232593 0.47902852
0.2705511 -0.19552198 0.27618438 -0.24878785 -0.037963778 -0.26615578 0.56497145 0.19136107
-0.16117762 0.69778866 -0.33197647 -0.40273193 0.47960684 -0.366887 -0.09464935 0.043678846
0.4224213 -0.18842469 0.5382103 -0.28512445
